…
11. runtime        : 0:00:18.722082
============ METRIC RESULT ============

Saving checkpoint: /mnt/797cf4e7-1dc1-4e40-ac32-d4f55c462ff4/jhyu/saved/test/models/npz/Adam-lr_1e-05/convnextv2_atto/64batch-3epoch-ce_loss-CutMix-down_random_downsampling-0723_165450/latest.pth ...


Input_size: torch.Size([64, 3, 800, 400])
==========================================================================================
Layer (type:depth-idx)                   Output Shape              Param #
==========================================================================================
ConvNeXtV2                               [64, 2]                   --
├─ModuleList: 1-7                        --                        (recursive)
│    └─Sequential: 2-1                   [64, 40, 200, 100]        --
│    │    └─Conv2d: 3-1                  [64, 40, 200, 100]        1,960
│    │    └─LayerNorm: 3-2               [64, 40, 200, 100]        80
├─ModuleList: 1-8                        --                        (recursive)
│    └─Sequential: 2-2                   [64, 40, 200, 100]        --
│    │    └─Block: 3-3                   [64, 40, 200, 100]        15,400
│    │    └─Block: 3-4                   [64, 40, 200, 100]        15,400
├─ModuleList: 1-7                        --                        (recursive)
│    └─Sequential: 2-3                   [64, 80, 100, 50]         --
│    │    └─LayerNorm: 3-5               [64, 40, 200, 100]        80
│    │    └─Conv2d: 3-6                  [64, 80, 100, 50]         12,880
├─ModuleList: 1-8                        --                        (recursive)
│    └─Sequential: 2-4                   [64, 80, 100, 50]         --
│    │    └─Block: 3-7                   [64, 80, 100, 50]         56,400
│    │    └─Block: 3-8                   [64, 80, 100, 50]         56,400
├─ModuleList: 1-7                        --                        (recursive)
│    └─Sequential: 2-5                   [64, 160, 50, 25]         --
│    │    └─LayerNorm: 3-9               [64, 80, 100, 50]         160
│    │    └─Conv2d: 3-10                 [64, 160, 50, 25]         51,360
├─ModuleList: 1-8                        --                        (recursive)
│    └─Sequential: 2-6                   [64, 160, 50, 25]         --
│    │    └─Block: 3-11                  [64, 160, 50, 25]         215,200
│    │    └─Block: 3-12                  [64, 160, 50, 25]         215,200
│    │    └─Block: 3-13                  [64, 160, 50, 25]         215,200
│    │    └─Block: 3-14                  [64, 160, 50, 25]         215,200
│    │    └─Block: 3-15                  [64, 160, 50, 25]         215,200
│    │    └─Block: 3-16                  [64, 160, 50, 25]         215,200
├─ModuleList: 1-7                        --                        (recursive)
│    └─Sequential: 2-7                   [64, 320, 25, 12]         --
│    │    └─LayerNorm: 3-17              [64, 160, 50, 25]         320
│    │    └─Conv2d: 3-18                 [64, 320, 25, 12]         205,120
├─ModuleList: 1-8                        --                        (recursive)
│    └─Sequential: 2-8                   [64, 320, 25, 12]         --
│    │    └─Block: 3-19                  [64, 320, 25, 12]         840,000
│    │    └─Block: 3-20                  [64, 320, 25, 12]         840,000
├─LayerNorm: 1-9                         [64, 320]                 640
├─Linear: 1-10                           [64, 2]                   642
==========================================================================================
Total params: 3,388,042
Trainable params: 3,388,042
Non-trainable params: 0
Total mult-adds (G): 27.00
==========================================================================================
Input size (MB): 245.76
Forward/backward pass size (MB): 23249.06
Params size (MB): 13.55
Estimated Total Size (MB): 23508.37
…
